PR14_17IT005/app/src/main/assets/mnist.tflite (tflite, 114272 bytes, 6 tensors)

sequential/conv2d/Conv2D/ReadVariableOp f4 [1, 3, 3, 32]
00000000: 5046 45be 1d2f eb3d 5f66 143e 85f6 61be
00000010: ac11 0e3e e644 1e3d 2594 403e dec9 9dbe
00000020: 53c1 213e c1f1 123e 4aab 8abe f990 a73d
00000030: 59f0 673e 8409 96be ec50 e5bd 122e 0dbe
00000040: bbb0 62bd 6722 bd3d 6c39 36be f583 a0bd
00000050: 034f 64be 12eb 2abe 4847 6cbe 53dd 053d
00000060: 8c47 123e f05f 5f3e d39d 0f3e d009 b23d
00000070: 4b49 0b3e 55d4 b13d 5f10 4e3b 55ec 893e
00000080: 87be 5bbd ebd3 063e 6a76 61be d6fb ebbc
00000090: ec8d c33d e155 723c db2a 883e ea98 a3be
000000a0: f7d9 4f3e 3738 1fbe 3d82 cd3b 326f a63d
000000b0: b46d 373e 8f6c 92be 7c78 00be dc80 b1be
000000c0: 9ece bd3d f02f ee3d 3dc0 cbbe 9391 b0bd
000000d0: 0d58 53be fa17 34be 64c1 8d3c c902 593e
000000e0: 7cd1 2abd f6c6 58bd 818d f83c c0d9 833d
000000f0: 04f4 033e 3ffb fa3d 899f fabc 9878 da3c
00000100: 3b83 5f3e 7fcf d3bc 9f79 85be 630d 803e
00000110: eaed 583e b03b 95be 2925 873e d9fc ec3d
00000120: 2a3f 54be 25ef a4be 5d29 f93d 341e d73d
00000130: 2536 33be 372a 3cbe 7adb fabe 3b56 66be
00000140: 8547 8fbd d6fc 40be bce9 a5be c5a1 97bd
00000150: 2f76 dd3d 6db3 963d 08ff 7b3c 6143 eb3d
00000160: 5469 b1bd 7859 6bbe e249 7dbe c210 b93d
00000170: 0d60 b33d b709 70bd 5fd4 57be 3a63 453e
00000180: 40ed 153e 442d f7bd 7873 403d a234 19be
00000190: 04ce 533e a2fc 1a3e 5477 14bd 2c0a 133c
000001a0: 30b5 923e e54a 6f3e 0b6d c13d 999c e5bd
000001b0: acbb 263e 5062 e2bc ea3d f83d 31c8 c73d
000001c0: 5830 b43d 9539 ba3d 12f4 423e 2645 5d3d
000001d0: ddfc c1be 8d29 6ebe be63 93be 694b 1e3e
000001e0: 92c2 0c3e 744a 913d 51d8 6e3e c12a 08be
000001f0: cb50 323e b835 063e e673 9bbd f38f 8fbd
00000200: d32d 8e3c 22b4 c53d fcdf 193e c99a 2fbd
00000210: 34ac e83d b258 13be 0a97 ecbd 0bc8 2f3b
00000220: 5634 f4bc 4427 0b3d 8af9 46bc ad92 c33d
00000230: 0375 20be b30b 8cbd 2499 f83d 8492 bcbc
00000240: e1f7 8e3c 8259 f43c 2b84 043e 1521 fd3d
00000250: c4eb 10be 51ac b5bd b203 9b3c b2cc 043e
00000260: cc04 20bd 6b42 493e 7434 a7bb 4437 f43d
00000270: 607a 3c3d 3ac2 ab3d 9324 df3d c5cc d6bd
00000280: 18d2 c63d 4640 0d3e 8929 c33b a8db 2d3e
00000290: a82c 9abd 8588 56be ff20 64bd f428 073e
000002a0: dbd6 3ebe 46e6 10be b1de 303b 0429 0bbe
000002b0: dc65 a1be 1771 29be 73c1 0ebe 9595 c8be
000002c0: e80e 61bc f746 8abe 5a54 943d 478d 863d
000002d0: 8970 3f3e 4ca8 3e3e 6d3a 573e e3c2 a5bd
000002e0: a0e9 903d 5eb0 aa3d c03c b0be 3b14 823e
000002f0: b022 debd 54c2 5f3d 83f2 6d3e 2e6d 8ebd
00000300: f243 323e 37c2 c3be 2dbe 133d 0df6 11be
00000310: 3222 e1bd 593b 7b3e 32c0 8bbd cfc4 8b3e
00000320: e596 213e fbcf 8d3e 6bc3 083e 3fec df3c
00000330: 1643 763e f980 b33e 2adc 04bc b70e b53e
00000340: 9242 f33c 83ec b23c b551 c83d 3703 923e
00000350: a98a 27be 826e a13c a669 1bbe 79b7 7ebe
00000360: d0f1 85bd 0cdd 55bd e48c 563e f4c3 b2be
00000370: e652 26bd a416 33be 6cde aebd 207c 5abe
00000380: 9a4d 35be 83b0 843d 867a 77bd d0ea f13d
00000390: 0df5 8bbe 3b0b 363e fcb9 84be f725 383e
000003a0: f20b 43be 3722 683e 93c7 043e b928 983d
000003b0: e385 aa3c 6112 073e 32d3 a73e 922a 683c
000003c0: f38d 60bd d116 093e f54a 163e 8aa6 193e
000003d0: af96 f4bc f8de 073e 0819 123e b6a7 fdbd
000003e0: aaa2 eb3d 527f e4bc ac72 ccbc 914c 09be
000003f0: 2931 0ebe 724a c7bb 7c37 0dbe c942 59be
-0.19265103 0.114835955 0.14492176 -0.22066696 0.13873929 0.038639925 0.18806513 -0.30818075
0.15796404 0.14350034 -0.27083808 0.08181948 0.22650279 -0.29304135 -0.11197075 -0.13787106
-0.055344325 0.09235077 -0.17795342 -0.07837669 -0.22295766 -0.16691235 -0.23074067 0.032681774
0.14285105 0.21813941 0.14025049 0.08693278 0.13602178 0.08683077 0.0031442863 0.2693812
-0.053648498 0.13166778 -0.22017828 -0.028806608 0.09548554 0.014790983 0.26595196 -0.31952602
0.2029799 -0.15548788 0.006271629 0.081266776 0.17912942 -0.2859845 -0.12545961 -0.34668624
0.09267925 0.11630237 -0.39795104 -0.08621516 -0.20639057 -0.17587271 0.01730413 0.21192469
-0.041703686 -0.05292412 0.030340912 0.06438017 0.12886053 0.12254953 -0.03059365 0.026668832
0.21827404 -0.025855778 -0.26069352 0.25010213 0.21184507 -0.291471 0.26395538 0.11571664
-0.2072722 -0.32213703 0.121660925 0.10503808 -0.17501123 -0.18375479 -0.48995572 -0.22493832
-0.06996063 -0.1884645 -0.32404888 -0.07403902 0.10813557 0.073584415 0.015380628 0.11487461
-0.08662668 -0.22983348 -0.24735215 0.090363994 0.087585546 -0.058603015 -0.21077107 0.19276133
0.14641285 -0.120691806 0.04698512 -0.14961484 0.20684057 0.15135434 -0.036246613 0.008974593
0.2865386 0.23368414 0.094446264 -0.11211509 0.16282529 -0.02763477 0.12121184 0.0975498
0.08798283 0.09093014 0.19038418 0.054021023 -0.37888232 -0.23258038 -0.28787035 0.15458454
0.13746098 0.07094279 0.23324706 -0.1329756 0.17413633 0.1310643 -0.07590465 -0.07009878
0.017355835 0.09653498 0.1502685 -0.042872224 0.1136097 -0.14389303 -0.11552246 0.0026822116
-0.029810112 0.033972993 -0.012144456 0.095494606 -0.15669636 -0.06838169 0.12138584 -0.023019083
0.017452182 0.029827837 0.12941043 0.123598255 -0.14152437 -0.08870757 0.01892266 0.1296871
-0.039067075 0.19654243 -0.0051026884 0.119246036 0.046015143 0.08386655 0.10895648 -0.104882754
0.09708041 0.1379405 0.005955879 0.16978323 -0.07528049 -0.20950516 -0.05569553 0.13199216
-0.18636648 -0.14150342 0.0026988203 -0.13589865 -0.31523025 -0.16547047 -0.13940983 -0.39176622
-0.013736464 -0.27007267 0.07242651 0.06569915 0.18695273 0.18618888 0.21018381 -0.08093812
0.070758104 0.083344206 -0.3442135 0.2540606 -0.1084646 0.054628685 0.23237042 -0.06954418
0.17408732 -0.38234112 0.036070038 -0.14254017 -0.1099285 0.24534358 -0.06823768 0.2729859
0.15780218 0.2769774 0.13355796 0.02733433 0.24049029 0.35059336 -0.008109132 0.3536279
0.02969483 0.021841293 0.097812094 0.28518078 -0.16361488 0.019706015 -0.1517702 -0.24874677
-0.06540263 -0.05221276 0.20952183 -0.34915125 -0.0406064 -0.17489105 -0.08538517 -0.21336412
-0.17705384 0.064789794 -0.06041958 0.11812365 -0.27335396 0.17777722 -0.25923145 0.17983232
-0.19047526 0.22669302 0.12966757 0.07429642 0.020815795 0.13190605 0.32778317 0.014170306
-0.054822873 0.1338761 0.14677031 0.15004936 -0.029857008 0.1326865 0.14267361 -0.12385504
0.11505635 -0.027892742 -0.024957024 -0.13408114 -0.1388594 -0.0060818726 -0.13790697 -0.21216883

sequential/conv2d/Conv2D_bias f4 [32]
00000000: b7bd 5ebc 6c9a 22bd 20e4 86bd fa6b 03bb
00000010: cfa2 313b ed55 c7bc aa4e 663d 7ee9 a6bc
00000020: b0d8 243d 56ad e3bc 09ab d8bd c14a ffbd
00000030: 2bd0 49bc 5a98 8b3d f017 6e3c 2a55 d13c
00000040: 0d9c eebd d4b1 90bd a66e 8f3b 3f7b 63bc
00000050: fee9 343d 9f73 74bc 52d6 4cbc f070 cfbb
00000060: 8b79 bfbd f741 8fbd 0874 4cbc 3761 a9bc
00000070: ef9a 3fbd 8c4b 1cbc b623 81bc e187 2e3d
-0.013595036 -0.03969805 -0.0658648 -0.0020053373 0.0027105098 -0.024332965 0.056227364 -0.02037501
0.04024571 -0.027792614 -0.10579497 -0.1246543 -0.0123176975 0.06816168 0.014532074 0.025553305
-0.11650858 -0.07065168 0.004377204 -0.013884365 0.044168465 -0.014920144 -0.01250227 -0.006330602
-0.09349354 -0.06995004 -0.012478836 -0.020676238 -0.046778616 -0.009539496 -0.015764099 0.042610053

sequential/conv2d_1/Conv2D/ReadVariableOp i1 [64, 3, 3, 32] scale=0.0048062066 zero_point=0
00000000: e2d0 f5e2 b7f1 cddd c2f0 eaec ca0b fe12
00000010: f1e0 1cea f3df efbf d6ca e5d0 c6e3 e3e6
00000020: dbe4 0aee d8e1 a90a f6c6 dfe1 db12 fe10
00000030: e4ea 08e8 0f0f fbc9 def2 f7ff d3cd 01e6
00000040: f409 fb04 ead6 b024 e5ca 06f6 c2f7 e0d2
00000050: 0ee8 1f03 1913 19e6 00d6 d800 f8ef 1ad0
00000060: edfc 0fe9 e0e6 caea d5bb c8d2 defb e7cc
00000070: 01d9 fad3 19f8 10e0 dcec d3e9 dde2 fff0
00000080: dc1b 0e0b eed7 b8f7 d5df 0504 e602 e1e9
00000090: 0ae7 05eb 0614 1beb 15cf e00e ebf5 00e2
000000a0: 13fe ed12 e6b0 d31e eacb 0bfb ccf1 d0d4
000000b0: 07e9 f11b 04f8 18fd f4e1 ea03 deec ebf0
000000c0: ca1e 0514 f6c0 c7f5 c8cc f9fa d3f6 00c2
000000d0: d8d2 0dee 100e 12db feda c403 fcf3 1de4
000000e0: ff07 0013 aed8 ad1c c2ca 0723 e50a e0fb
000000f0: 04e9 fe0f 2428 26c5 eed5 0304 efca 15d1
-0.1441862 -0.23069791 -0.052868273 -0.1441862 -0.3508531 -0.0720931 -0.24511653 -0.16821723
-0.2979848 -0.076899305 -0.105736546 -0.09612413 -0.25953516 0.052868273 -0.009612413 0.086511716
-0.0720931 -0.15379861 0.13457379 -0.105736546 -0.062480684 -0.15860482 -0.08170551 -0.31240344
-0.20186068 -0.25953516 -0.12976758 -0.23069791 -0.27876 -0.13938 -0.13938 -0.12496137
-0.17782964 -0.13457379 0.048062064 -0.086511716 -0.19224826 -0.1489924 -0.41813996 0.048062064
-0.048062064 -0.27876 -0.15860482 -0.1489924 -0.17782964 0.086511716 -0.009612413 0.076899305
-0.13457379 -0.105736546 0.038449652 -0.11534896 0.0720931 0.0720931 -0.024031032 -0.26434135
-0.16341102 -0.067286894 -0.043255858 -0.0048062066 -0.2162793 -0.24511653 0.0048062066 -0.12496137
-0.05767448 0.043255858 -0.024031032 0.019224826 -0.105736546 -0.20186068 -0.3844965 0.17302343
-0.12976758 -0.25953516 0.02883724 -0.048062064 -0.2979848 -0.043255858 -0.15379861 -0.2210855
0.067286894 -0.11534896 0.1489924 0.01441862 0.12015516 0.09131792 0.12015516 -0.12496137
0.0 -0.20186068 -0.19224826 0.0 -0.038449652 -0.08170551 0.12496137 -0.23069791
-0.09131792 -0.019224826 0.0720931 -0.11054275 -0.15379861 -0.12496137 -0.25953516 -0.105736546
-0.20666689 -0.33162826 -0.26914757 -0.2210855 -0.16341102 -0.024031032 -0.12015516 -0.24992274
0.0048062066 -0.18744205 -0.02883724 -0.2162793 0.12015516 -0.038449652 0.076899305 -0.15379861
-0.17302343 -0.09612413 -0.2162793 -0.11054275 -0.16821723 -0.1441862 -0.0048062066 -0.076899305
-0.17302343 0.12976758 0.067286894 0.052868273 -0.086511716 -0.19705448 -0.34604686 -0.043255858
-0.20666689 -0.15860482 0.024031032 0.019224826 -0.12496137 0.009612413 -0.1489924 -0.11054275
0.048062064 -0.12015516 0.024031032 -0.10093034 0.02883724 0.09612413 0.12976758 -0.10093034
0.10093034 -0.23550412 -0.15379861 0.067286894 -0.10093034 -0.052868273 0.0 -0.1441862
0.09131792 -0.009612413 -0.09131792 0.086511716 -0.12496137 -0.3844965 -0.2162793 0.1441862
-0.105736546 -0.25472894 0.052868273 -0.024031032 -0.24992274 -0.0720931 -0.23069791 -0.21147309
0.033643447 -0.11054275 -0.0720931 0.12976758 0.019224826 -0.038449652 0.11534896 -0.01441862
-0.05767448 -0.1489924 -0.105736546 0.01441862 -0.16341102 -0.09612413 -0.10093034 -0.076899305
-0.25953516 0.1441862 0.024031032 0.09612413 -0.048062064 -0.30759722 -0.27395377 -0.052868273
-0.26914757 -0.24992274 -0.033643447 -0.02883724 -0.2162793 -0.048062064 0.0 -0.2979848
-0.19224826 -0.2210855 0.062480684 -0.086511716 0.076899305 0.067286894 0.086511716 -0.17782964
-0.009612413 -0.18263584 -0.2883724 0.01441862 -0.019224826 -0.062480684 0.13938 -0.13457379
-0.0048062066 0.033643447 0.0 0.09131792 -0.39410895 -0.19224826 -0.39891514 0.13457379
-0.2979848 -0.25953516 0.033643447 0.16821723 -0.12976758 0.048062064 -0.15379861 -0.024031032
0.019224826 -0.11054275 -0.009612413 0.0720931 0.17302343 0.19224826 0.18263584 -0.28356618
-0.086511716 -0.20666689 0.01441862 0.019224826 -0.08170551 -0.25953516 0.10093034 -0.22589171

sequential/conv2d_1/Conv2D_bias f4 [64]
00000000: bb13 00bd 6e6c 33bc 4d7d 15ba 4876 efbc
00000010: a057 c03c 8cff 85bd 20f3 353d 7d2c 82bd
00000020: aa96 25bd ec80 fcbc abc6 92bd 9126 36bd
00000030: a35e 28bd e727 b73c b923 3ebd 4601 263c
00000040: a9bf cb3a b763 02bd 1ea2 9d3b c09f b83c
00000050: 5b88 083d 69d3 80bd ac29 343c bda3 a9bc
00000060: e902 01bd ada2 bfbd 15ad 2bbd 8ac7 81bc
00000070: 1b66 c9bc 31fe 773d 919c 2639 dc13 4ebd
00000080: cfd8 64bd 2876 44bc 77db 88bd 918d 143d
00000090: 6dd1 8ebd 6698 52bd c936 47bd 24ce d7b9
000000a0: 4a9f 0bbd 5a76 ebbc ac5b bebc 7e3b 7ebd
000000b0: cf10 3bb9 ab9b dbbc 5cac 8b3c bcac 62bd
000000c0: a66c 493b 699a d3bb f30c a1bd e019 27bd
000000d0: 2351 603d 1b53 6bbd 1600 023d 1e3b b0bc
000000e0: b3ea 10bc 6416 64bb e397 90bc 7c12 f8bc
000000f0: 41a7 293c cc8e b5bc 7312 8fbc 90d8 2d3c
-0.031268816 -0.010951145 -0.000570257 -0.029231206 0.023479283 -0.06542882 0.044421315 -0.06356142
-0.040426888 -0.030823193 -0.07166799 -0.044470374 -0.041105878 0.022357894 -0.046420787 0.01013214
0.001554479 -0.031833377 0.0048105856 0.022537112 0.033333164 -0.06290323 0.0109962635 -0.02070796
-0.031496916 -0.093572 -0.04191311 -0.015842218 -0.02458482 0.06054515 0.00015889319 -0.050311908
-0.055870827 -0.011991061 -0.066824846 0.03626782 -0.069735385 -0.05141487 -0.04863623 -0.00041161582
-0.034087457 -0.028742958 -0.023237072 -0.062068455 -0.00017839971 -0.026807627 0.01704996 -0.055340514
0.0030734926 -0.006457616 -0.07863798 -0.04079616 0.054764878 -0.057452302 0.031738363 -0.021512564
-0.008845019 -0.0034803385 -0.01765055 -0.030282252 0.010354818 -0.022162817 -0.017464852 0.010610715

sequential/dense/MatMul/ReadVariableOp/transpose i1 [10, 9216] scale=0.00486047 zero_point=0
00000000: f201 02fa 08fb 01f7 fb10 faf8 fe03 fc04
00000010: fbfc 0300 edff fd0a effb fcfe f90e 1cfb
00000020: 02fa fee8 04fa fffc ff04 ff00 ebed fc00
00000030: 15f8 fbfc 06fe 0afd 0cde f0fb 0505 0802
00000040: eb07 05f3 28fa e8f0 fb00 f7fb e9fa ebf7
00000050: fb02 fdfb fbf8 f804 eeff fd02 e8ed 02f2
00000060: f7ff f902 e0ec faf0 fafc f8f1 e8f9 f9f9
00000070: 0ceb 0005 09f2 fbf7 fff8 f703 eae7 04fd
00000080: ef07 0df5 0afb faff fd0b fdf8 f303 fafe
00000090: ee0a e800 03fc fc13 07ff f5fb e9eb 1aef
000000a0: fdf6 fe00 e7f5 03ed f5f7 ffe2 f709 ebff
000000b0: 03ef fb04 f9ee faf4 f7ec fbff fef0 0ddf
000000c0: 00f4 ef00 0c06 1afc f5fb fafe f9f7 ff00
000000d0: ff08 f0fe f3f8 fb0e f207 f9fc eeef 0b01
000000e0: feff fbf3 e7ff ecec f7fd 01de f409 13fa
000000f0: 03ff f7f9 03ee 09ff edfd f2ff f005 15f1
-0.068046585 0.00486047 0.00972094 -0.02916282 0.03888376 -0.02430235 0.00486047 -0.04374423
-0.02430235 0.07776752 -0.02916282 -0.03888376 -0.00972094 0.01458141 -0.01944188 0.01944188
-0.02430235 -0.01944188 0.01458141 0.0 -0.09234893 -0.00486047 -0.01458141 0.0486047
-0.08262799 -0.02430235 -0.01944188 -0.00972094 -0.034023292 0.068046585 0.13609317 -0.02430235
0.00972094 -0.02916282 -0.00972094 -0.11665128 0.01944188 -0.02916282 -0.00486047 -0.01944188
-0.00486047 0.01944188 -0.00486047 0.0 -0.10206987 -0.09234893 -0.01944188 0.0
0.10206987 -0.03888376 -0.02430235 -0.01944188 0.02916282 -0.00972094 0.0486047 -0.01458141
0.05832564 -0.16525598 -0.07776752 -0.02430235 0.02430235 0.02430235 0.03888376 0.00972094
-0.10206987 0.034023292 0.02430235 -0.06318611 0.1944188 -0.02916282 -0.11665128 -0.07776752
-0.02430235 0.0 -0.04374423 -0.02430235 -0.11179081 -0.02916282 -0.10206987 -0.04374423
-0.02430235 0.00972094 -0.01458141 -0.02430235 -0.02430235 -0.03888376 -0.03888376 0.01944188
-0.08748846 -0.00486047 -0.01458141 0.00972094 -0.11665128 -0.09234893 0.00972094 -0.068046585
-0.04374423 -0.00486047 -0.034023292 0.00972094 -0.15553504 -0.0972094 -0.02916282 -0.07776752
-0.02916282 -0.01944188 -0.03888376 -0.07290705 -0.11665128 -0.034023292 -0.034023292 -0.034023292
0.05832564 -0.10206987 0.0 0.02430235 0.04374423 -0.068046585 -0.02430235 -0.04374423
-0.00486047 -0.03888376 -0.04374423 0.01458141 -0.106930345 -0.12151175 0.01944188 -0.01458141
-0.08262799 0.034023292 0.06318611 -0.053465173 0.0486047 -0.02430235 -0.02916282 -0.00486047
-0.01458141 0.053465173 -0.01458141 -0.03888376 -0.06318611 0.01458141 -0.02916282 -0.00972094
-0.08748846 0.0486047 -0.11665128 0.0 0.01458141 -0.01944188 -0.01944188 0.09234893
0.034023292 -0.00486047 -0.053465173 -0.02430235 -0.11179081 -0.10206987 0.12637222 -0.08262799
-0.01458141 -0.0486047 -0.00972094 0.0 -0.12151175 -0.053465173 0.01458141 -0.09234893
-0.053465173 -0.04374423 -0.00486047 -0.1458141 -0.04374423 0.04374423 -0.10206987 -0.00486047
0.01458141 -0.08262799 -0.02430235 0.01944188 -0.034023292 -0.08748846 -0.02916282 -0.05832564
-0.04374423 -0.0972094 -0.02430235 -0.00486047 -0.00972094 -0.07776752 0.06318611 -0.16039552
0.0 -0.05832564 -0.08262799 0.0 0.05832564 0.02916282 0.12637222 -0.01944188
-0.053465173 -0.02430235 -0.02916282 -0.00972094 -0.034023292 -0.04374423 -0.00486047 0.0
-0.00486047 0.03888376 -0.07776752 -0.00972094 -0.06318611 -0.03888376 -0.02430235 0.068046585
-0.068046585 0.034023292 -0.034023292 -0.01944188 -0.08748846 -0.08262799 0.053465173 0.00486047
-0.00972094 -0.00486047 -0.02430235 -0.06318611 -0.12151175 -0.00486047 -0.0972094 -0.0972094
-0.04374423 -0.01458141 0.00486047 -0.16525598 -0.05832564 0.04374423 0.09234893 -0.02916282
0.01458141 -0.00486047 -0.04374423 -0.034023292 0.01458141 -0.08748846 0.04374423 -0.00486047
-0.09234893 -0.01458141 -0.068046585 -0.00486047 -0.07776752 0.02430235 0.10206987 -0.07290705

sequential/dense/MatMul_bias f4 [10]
00000000: 1be2 63bb aa58 113e 5d15 343d 0278 dabc
00000010: 1594 1ebd c318 283d 5564 42bc 47fa 693d
00000020: d524 f2bd 5497 2abd
-0.003477222 0.14193979 0.043965686 -0.026668552 -0.03871544 0.04103924 -0.011864741 0.05712345
-0.118234314 -0.041648224
